…
<p>The problem is (I guess) that, from the model summary the model is training from the last dimension when it should be working in the second one:</p>
<pre><code>dense_model.summary()

Model: &quot;sequential_21&quot;
_________________________________________________________________
Layer (type)                 Output Shape              Param #   
=================================================================
                                          |Model is being applied here
                                          |
                                          v
dense_232 (Dense)            (None, 200, 200)          400       
_________________________________________________________________
                                     |When it should be applied here
                                     |
                                     v
activation_225 (Activation)  (None, 200, 200)          0         
_________________________________________________________________
dropout_211 (Dropout)        (None, 200, 200)          0         
_________________________________________________________________
dense_233 (Dense)            (None, 200, 100)          20100     
_________________________________________________________________
activation_226 (Activation)  (None, 200, 100)          0         
_________________________________________________________________
dropout_212 (Dropout)        (None, 200, 100)          0         
_________________________________________________________________
dense_234 (Dense)            (None, 200, 50)           5050      
_________________________________________________________________
activation_227 (Activation)  (None, 200, 50)           0         
_________________________________________________________________
dropout_213 (Dropout)        (None, 200, 50)           0         
_________________________________________________________________
dense_235 (Dense)            (None, 200, 25)           1275      
_________________________________________________________________
activation_228 (Activation)  (None, 200, 25)           0         
_________________________________________________________________
dropout_214 (Dropout)        (None, 200, 25)           0         
_________________________________________________________________
dense_236 (Dense)            (None, 200, 13)           338       
_________________________________________________________________
activation_229 (Activation)  (None, 200, 13)           0         
_________________________________________________________________
dropout_215 (Dropout)        (None, 200, 13)           0         
_________________________________________________________________
dense_237 (Dense)            (None, 200, 7)            98        
_________________________________________________________________
activation_230 (Activation)  (None, 200, 7)            0         
_________________________________________________________________
dropout_216 (Dropout)        (None, 200, 7)            0         
_________________________________________________________________
dense_238 (Dense)            (None, 200, 4)            32        
_________________________________________________________________
activation_231 (Activation)  (None, 200, 4)            0         
_________________________________________________________________
dropout_217 (Dropout)        (None, 200, 4)            0         
_________________________________________________________________
dense_239 (Dense)            (None, 200, 2)            10        
_________________________________________________________________
activation_232 (Activation)  (None, 200, 2)            0         
_________________________________________________________________
dropout_218 (Dropout)        (None, 200, 2)            0         
_________________________________________________________________
dense_240 (Dense)            (None, 200, 1)            3         
=================================================================
Total params: 27,306
Trainable params: 27,306
Non-trainable params: 0
_________________________________________________________________


</code></pre>
<p>And because of that Im getting <code>ValueError: logits and labels must have the same shape ((None, 200, 1) vs (None, 1, 1))</code></p>
<p>How can I tell Keras to apply the training in the second dimension and not the last one?</p>
…
